GraphModule(
  (features): Module(
    (0): Module(
      (0): Conv2d(3, 24, kernel_size=(3, 3), stride=(2, 2), padding=(1, 1))
      (2): ReLU6(inplace=True)
    )
    (1): Module(
      (conv): Module(
        (0): Module(
          (0): Conv2d(24, 24, kernel_size=(3, 3), stride=(1, 1), padding=(1, 1), groups=24)
          (2): ReLU6(inplace=True)
        )
        (1): Conv2d(24, 12, kernel_size=(1, 1), stride=(1, 1))
      )
    )
    (2): Module(
      (conv): Module(
        (0): Module(
          (0): Conv2d(12, 72, kernel_size=(1, 1), stride=(1, 1))
          (2): ReLU6(inplace=True)
        )
        (1): Module(
          (0): Conv2d(72, 72, kernel_size=(3, 3), stride=(2, 2), padding=(1, 1), groups=72)
          (2): ReLU6(inplace=True)
        )
        (2): Conv2d(72, 18, kernel_size=(1, 1), stride=(1, 1))
      )
    )
    (3): Module(
      (conv): Module(
        (0): Module(
          (0): Conv2d(18, 108, kernel_size=(1, 1), stride=(1, 1))
          (2): ReLU6(inplace=True)
        )
        (1): Module(
          (0): Conv2d(108, 108, kernel_size=(3, 3), stride=(1, 1), padding=(1, 1), groups=108)
          (2): ReLU6(inplace=True)
        )
        (2): Conv2d(108, 18, kernel_size=(1, 1), stride=(1, 1))
      )
    )
    (4): Module(
      (conv): Module(
        (0): Module(
          (0): Conv2d(18, 108, kernel_size=(1, 1), stride=(1, 1))
          (2): ReLU6(inplace=True)
        )
        (1): Module(
          (0): Conv2d(108, 108, kernel_size=(3, 3), stride=(2, 2), padding=(1, 1), groups=108)
          (2): ReLU6(inplace=True)
        )
        (2): Conv2d(108, 24, kernel_size=(1, 1), stride=(1, 1))
      )
    )
    (5): Module(
      (conv): Module(
        (0): Module(
          (0): Conv2d(24, 144, kernel_size=(1, 1), stride=(1, 1))
          (2): ReLU6(inplace=True)
        )
        (1): Module(
          (0): Conv2d(144, 144, kernel_size=(3, 3), stride=(1, 1), padding=(1, 1), groups=144)
          (2): ReLU6(inplace=True)
        )
        (2): Conv2d(144, 24, kernel_size=(1, 1), stride=(1, 1))
      )
    )
    (6): Module(
      (conv): Module(
        (0): Module(
          (0): Conv2d(24, 144, kernel_size=(1, 1), stride=(1, 1))
          (2): ReLU6(inplace=True)
        )
        (1): Module(
          (0): Conv2d(144, 144, kernel_size=(3, 3), stride=(1, 1), padding=(1, 1), groups=144)
          (2): ReLU6(inplace=True)
        )
        (2): Conv2d(144, 24, kernel_size=(1, 1), stride=(1, 1))
      )
    )
    (7): Module(
      (conv): Module(
        (0): Module(
          (0): Conv2d(24, 144, kernel_size=(1, 1), stride=(1, 1))
          (2): ReLU6(inplace=True)
        )
        (1): Module(
          (0): Conv2d(144, 144, kernel_size=(3, 3), stride=(2, 2), padding=(1, 1), groups=144)
          (2): ReLU6(inplace=True)
        )
        (2): Conv2d(144, 48, kernel_size=(1, 1), stride=(1, 1))
      )
    )
    (8): Module(
      (conv): Module(
        (0): Module(
          (0): Conv2d(48, 288, kernel_size=(1, 1), stride=(1, 1))
          (2): ReLU6(inplace=True)
        )
        (1): Module(
          (0): Conv2d(288, 288, kernel_size=(3, 3), stride=(1, 1), padding=(1, 1), groups=288)
          (2): ReLU6(inplace=True)
        )
        (2): Conv2d(288, 48, kernel_size=(1, 1), stride=(1, 1))
      )
    )
    (9): Module(
      (conv): Module(
        (0): Module(
          (0): Conv2d(48, 288, kernel_size=(1, 1), stride=(1, 1))
          (2): ReLU6(inplace=True)
        )
        (1): Module(
          (0): Conv2d(288, 288, kernel_size=(3, 3), stride=(1, 1), padding=(1, 1), groups=288)
          (2): ReLU6(inplace=True)
        )
        (2): Conv2d(288, 48, kernel_size=(1, 1), stride=(1, 1))
      )
    )
    (10): Module(
      (conv): Module(
        (0): Module(
          (0): Conv2d(48, 288, kernel_size=(1, 1), stride=(1, 1))
          (2): ReLU6(inplace=True)
        )
        (1): Module(
          (0): Conv2d(288, 288, kernel_size=(3, 3), stride=(1, 1), padding=(1, 1), groups=288)
          (2): ReLU6(inplace=True)
        )
        (2): Conv2d(288, 48, kernel_size=(1, 1), stride=(1, 1))
      )
    )
    (11): Module(
      (conv): Module(
        (0): Module(
          (0): Conv2d(48, 288, kernel_size=(1, 1), stride=(1, 1))
          (2): ReLU6(inplace=True)
        )
        (1): Module(
          (0): Conv2d(288, 288, kernel_size=(3, 3), stride=(1, 1), padding=(1, 1), groups=288)
          (2): ReLU6(inplace=True)
        )
        (2): Conv2d(288, 72, kernel_size=(1, 1), stride=(1, 1))
      )
    )
    (12): Module(
      (conv): Module(
        (0): Module(
          (0): Conv2d(72, 432, kernel_size=(1, 1), stride=(1, 1))
          (2): ReLU6(inplace=True)
        )
        (1): Module(
          (0): Conv2d(432, 432, kernel_size=(3, 3), stride=(1, 1), padding=(1, 1), groups=432)
          (2): ReLU6(inplace=True)
        )
        (2): Conv2d(432, 72, kernel_size=(1, 1), stride=(1, 1))
      )
    )
    (13): Module(
      (conv): Module(
        (0): Module(
          (0): Conv2d(72, 432, kernel_size=(1, 1), stride=(1, 1))
          (2): ReLU6(inplace=True)
        )
        (1): Module(
          (0): Conv2d(432, 432, kernel_size=(3, 3), stride=(1, 1), padding=(1, 1), groups=432)
          (2): ReLU6(inplace=True)
        )
        (2): Conv2d(432, 72, kernel_size=(1, 1), stride=(1, 1))
      )
    )
    (14): Module(
      (conv): Module(
        (0): Module(
          (0): Conv2d(72, 432, kernel_size=(1, 1), stride=(1, 1))
          (2): ReLU6(inplace=True)
        )
        (1): Module(
          (0): Conv2d(432, 432, kernel_size=(3, 3), stride=(2, 2), padding=(1, 1), groups=432)
          (2): ReLU6(inplace=True)
        )
        (2): Conv2d(432, 120, kernel_size=(1, 1), stride=(1, 1))
      )
    )
    (15): Module(
      (conv): Module(
        (0): Module(
          (0): Conv2d(120, 720, kernel_size=(1, 1), stride=(1, 1))
          (2): ReLU6(inplace=True)
        )
        (1): Module(
          (0): Conv2d(720, 720, kernel_size=(3, 3), stride=(1, 1), padding=(1, 1), groups=720)
          (2): ReLU6(inplace=True)
        )
        (2): Conv2d(720, 120, kernel_size=(1, 1), stride=(1, 1))
      )
    )
    (16): Module(
      (conv): Module(
        (0): Module(
          (0): Conv2d(120, 720, kernel_size=(1, 1), stride=(1, 1))
          (2): ReLU6(inplace=True)
        )
        (1): Module(
          (0): Conv2d(720, 720, kernel_size=(3, 3), stride=(1, 1), padding=(1, 1), groups=720)
          (2): ReLU6(inplace=True)
        )
        (2): Conv2d(720, 120, kernel_size=(1, 1), stride=(1, 1))
      )
    )
    (17): Module(
      (conv): Module(
        (0): Module(
          (0): Conv2d(120, 720, kernel_size=(1, 1), stride=(1, 1))
          (2): ReLU6(inplace=True)
        )
        (1): Module(
          (0): Conv2d(720, 720, kernel_size=(3, 3), stride=(1, 1), padding=(1, 1), groups=720)
          (2): ReLU6(inplace=True)
        )
        (2): Conv2d(720, 240, kernel_size=(1, 1), stride=(1, 1))
      )
    )
    (18): Module(
      (0): Conv2d(240, 960, kernel_size=(1, 1), stride=(1, 1))
      (2): ReLU6(inplace=True)
    )
  )
  (classifier): Module(
    (0): Dropout(p=0.2, inplace=False)
    (1): Linear(in_features=960, out_features=200, bias=True)
  )
)



def forward(self, x : torch.Tensor) -> torch.Tensor:
    features_0_0 = getattr(getattr(self.features, "0"), "0")(x);  x = None
    features_0_2 = getattr(getattr(self.features, "0"), "2")(features_0_0);  features_0_0 = None
    features_1_conv_0_0 = getattr(getattr(getattr(self.features, "1").conv, "0"), "0")(features_0_2);  features_0_2 = None
…
